…
 78  Idle Min           1048575 non-null  int64  
 79  Label              1048575 non-null  object 
dtypes: float64(24), int64(54), object(2)
memory usage: 640.0+ MB
None
shape of dataset :  (1048575, 80)


the number of values for labels :  Benign                   996077
DoS attacks-GoldenEye     41508
DoS attacks-Slowloris     10990
Name: Label, dtype: int64
Model: "sequential"
_________________________________________________________________
 Layer (type)                Output Shape              Param #   
=================================================================
 conv1d (Conv1D)             (None, 72, 64)            256       
                                                                 
 conv1d_1 (Conv1D)           (None, 72, 128)           8320      
                                                                 
 max_pooling1d (MaxPooling1D  (None, 72, 128)          0         
 )                                                               
                                                                 
 conv1d_2 (Conv1D)           (None, 72, 128)           16512     
                                                                 
 batch_normalization (BatchN  (None, 72, 128)          512       
 ormalization)                                                   
                                                                 
 max_pooling1d_1 (MaxPooling  (None, 72, 128)          0         
 1D)                                                             
                                                                 
 conv1d_3 (Conv1D)           (None, 72, 128)           16512     
                                                                 
 batch_normalization_1 (Batc  (None, 72, 128)          512       
 hNormalization)                                                 
                                                                 
 max_pooling1d_2 (MaxPooling  (None, 72, 128)          0         
 1D)                                                             
                                                                 
 conv1d_4 (Conv1D)           (None, 72, 128)           16512     
                                                                 
 batch_normalization_2 (Batc  (None, 72, 128)          512       
 hNormalization)                                                 
                                                                 
 max_pooling1d_3 (MaxPooling  (None, 72, 128)          0         
 1D)                                                             
                                                                 
 conv1d_5 (Conv1D)           (None, 72, 128)           16512     
                                                                 
 batch_normalization_3 (Batc  (None, 72, 128)          512       
 hNormalization)                                                 
                                                                 
 max_pooling1d_4 (MaxPooling  (None, 72, 128)          0         
 1D)                                                             
                                                                 
 conv1d_6 (Conv1D)           (None, 72, 128)           16512     
                                                                 
 batch_normalization_4 (Batc  (None, 72, 128)          512       
 hNormalization)                                                 
                                                                 
 max_pooling1d_5 (MaxPooling  (None, 72, 128)          0         
 1D)                                                             
                                                                 
 conv1d_7 (Conv1D)           (None, 72, 128)           16512     
                                                                 
 batch_normalization_5 (Batc  (None, 72, 128)          512       
 hNormalization)                                                 
                                                                 
 max_pooling1d_6 (MaxPooling  (None, 72, 128)          0         
 1D)                                                             
                                                                 
 conv1d_8 (Conv1D)           (None, 72, 128)           16512     
                                                                 
 batch_normalization_6 (Batc  (None, 72, 128)          512       
 hNormalization)                                                 
                                                                 
 max_pooling1d_7 (MaxPooling  (None, 72, 128)          0         
 1D)                                                             
                                                                 
 flatten (Flatten)           (None, 9216)              0         
                                                                 
 dense (Dense)               (None, 128)               1179776   
                                                                 
 batch_normalization_7 (Batc  (None, 128)              512       
 hNormalization)                                                 
                                                                 
 dense_1 (Dense)             (None, 128)               16512     
                                                                 
 batch_normalization_8 (Batc  (None, 128)              512       
 hNormalization)                                                 
                                                                 
 dense_2 (Dense)             (None, 3)                 387       
                                                                 
=================================================================
Total params: 1,325,443
Trainable params: 1,323,139
Non-trainable params: 2,304
_________________________________________________________________
  1/375 [..............................] - ETA: 6s - loss: 0.0838 - accuracy: 0.9375
…
