…
 77  Idle Max           331100 non-null  int64  
 78  Idle Min           331100 non-null  int64  
 79  Label              331100 non-null  object 
dtypes: float64(24), int64(54), object(2)
memory usage: 202.1+ MB
None
shape of dataset :  (331100, 80)


the number of values for labels :  Benign           238037
Infilteration     93063
Name: Label, dtype: int64
Model: "sequential"
_________________________________________________________________
 Layer (type)                Output Shape              Param #   
=================================================================
 conv1d (Conv1D)             (None, 72, 64)            256       
                                                                 
 conv1d_1 (Conv1D)           (None, 72, 128)           8320      
                                                                 
 max_pooling1d (MaxPooling1D  (None, 72, 128)          0         
 )                                                               
                                                                 
 conv1d_2 (Conv1D)           (None, 72, 128)           16512     
                                                                 
 batch_normalization (BatchN  (None, 72, 128)          512       
 ormalization)                                                   
                                                                 
 max_pooling1d_1 (MaxPooling  (None, 72, 128)          0         
 1D)                                                             
                                                                 
 conv1d_3 (Conv1D)           (None, 72, 128)           16512     
                                                                 
 batch_normalization_1 (Batc  (None, 72, 128)          512       
 hNormalization)                                                 
                                                                 
 max_pooling1d_2 (MaxPooling  (None, 72, 128)          0         
 1D)                                                             
                                                                 
 conv1d_4 (Conv1D)           (None, 72, 128)           16512     
                                                                 
 batch_normalization_2 (Batc  (None, 72, 128)          512       
 hNormalization)                                                 
                                                                 
 max_pooling1d_3 (MaxPooling  (None, 72, 128)          0         
 1D)                                                             
                                                                 
 conv1d_5 (Conv1D)           (None, 72, 128)           16512     
                                                                 
 batch_normalization_3 (Batc  (None, 72, 128)          512       
 hNormalization)                                                 
                                                                 
 max_pooling1d_4 (MaxPooling  (None, 72, 128)          0         
 1D)                                                             
                                                                 
 conv1d_6 (Conv1D)           (None, 72, 128)           16512     
                                                                 
 batch_normalization_4 (Batc  (None, 72, 128)          512       
 hNormalization)                                                 
                                                                 
 max_pooling1d_5 (MaxPooling  (None, 72, 128)          0         
 1D)                                                             
                                                                 
 conv1d_7 (Conv1D)           (None, 72, 128)           16512     
                                                                 
 batch_normalization_5 (Batc  (None, 72, 128)          512       
 hNormalization)                                                 
                                                                 
 max_pooling1d_6 (MaxPooling  (None, 72, 128)          0         
 1D)                                                             
                                                                 
 conv1d_8 (Conv1D)           (None, 72, 128)           16512     
                                                                 
 batch_normalization_6 (Batc  (None, 72, 128)          512       
 hNormalization)                                                 
                                                                 
 max_pooling1d_7 (MaxPooling  (None, 72, 128)          0         
 1D)                                                             
                                                                 
 flatten (Flatten)           (None, 9216)              0         
                                                                 
 dense (Dense)               (None, 128)               1179776   
                                                                 
 batch_normalization_7 (Batc  (None, 128)              512       
 hNormalization)                                                 
                                                                 
 dense_1 (Dense)             (None, 128)               16512     
                                                                 
 batch_normalization_8 (Batc  (None, 128)              512       
 hNormalization)                                                 
                                                                 
 dense_2 (Dense)             (None, 2)                 258       
                                                                 
=================================================================
Total params: 1,325,314
Trainable params: 1,323,010
Non-trainable params: 2,304
_________________________________________________________________
Epoch 1/10
   1/1250 [..............................] - ETA: 1:07:21 - loss: 0.8586 - accuracy: 0.4688
…
